chrome_profile/optimization_guide_model_store/20/63922A0C010C80A5/4A8C93C96E3CC3C9/model.tflite (tflite, 64872 bytes, 5 tensors)

arith.constant f4 [1, 64]
00000000: 4dbb 673e cf91 273e a313 b23e 456f 43be
00000010: 5554 573e 56ba 22be 4bbc 8d3e 3283 913e
00000020: b686 35be 84ea 983e 9d81 663e 3b77 02be
00000030: 117f 083e 8206 153d 4117 323e 6033 823e
00000040: 53a1 c73d 20dd 53bd 3eb7 3abe d5df 67be
00000050: 57da 16be 8e7d 53be eace 3b3c 6c46 773d
00000060: 1135 1fbe 4944 79be 1850 b63c 2fe3 07be
00000070: 3417 84bd 9baf 8dbe 5d03 903e f0f7 fa3e
00000080: 8d93 0a3e ea1e 1f3e 3ff4 6a3e 541b eabc
00000090: 31f1 693e 84b8 cf3c 5a9e 013d d2ef 643e
000000a0: 0162 94be f2ee 8dbe d9f4 4fbe 7d76 2a3e
000000b0: 149e 1f3e 3ba0 ee3c c05b 11bd e0a4 3f3e
000000c0: e103 39be 7e95 c4bd 7561 8dbe 0b3c 383d
000000d0: c8ae 92be aacc 9d3c ef7a 133e c861 6bbe
000000e0: 0798 eb3d 9292 503d 3e5e 6c3e 16e9 8d3e
000000f0: e804 2abe 7662 98be 42f6 123e ed3d 09be
0.22630043 0.16364215 0.34780607 -0.19085415 0.21028264 -0.15891394 0.2768272 0.28420407
-0.1772717 0.2986642 0.22510381 -0.12740795 0.13329722 0.03638316 0.17391683 0.2542982
0.09747567 -0.051724553 -0.18233964 -0.22643979 -0.14731728 -0.20653364 0.011462906 0.060369894
-0.15547587 -0.24342455 0.022254989 -0.13270257 -0.06449738 -0.2767304 0.28127566 0.49017286
0.13532849 0.15539137 0.22944735 -0.028577484 0.22845913 0.025356539 0.031645156 0.22357109
-0.2898102 -0.27721363 -0.20308246 0.16646762 0.15587646 0.029129138 -0.03548789 0.18715239
-0.18067886 -0.09598826 -0.27613416 0.044979136 -0.28648973 0.01926263 0.14402364 -0.2298652
0.11503606 0.05092103 0.23082826 0.27716893 -0.16603434 -0.2976262 0.14351752 -0.13402529

arith.constant1 f4 [64, 128]
00000000: bdd1 1fbe 8c28 343d 16f2 a6bc 5b0a dbbd
00000010: 8f1d 2f3e 8c8b 993d 7ae6 ae3d 4244 e1bd
00000020: c14b 02be 46c5 03be fc69 0abe 1287 673d
00000030: 8584 7c3d 81d6 38bd 747a 023e df98 c73d
00000040: 7479 36bd f924 8d3d 2ddf 913d 59c5 1d3e
00000050: 95b3 043c ff7e 15be f54c 19be 6b28 213e
00000060: 3692 f83d e0d0 b53d 7f8b a03d b628 eabd
00000070: 6388 77bc 40db ee3d 00b2 44bd 9d80 22be
00000080: 3fa1 51be bf55 343d cac4 493d 4040 3b3d
00000090: 9a6c 6bbb bbd1 1f3d 3ea8 ba3d 1da8 01be
000000a0: c154 cdbd f87f 823c 05cf 02be 9b99 ebbc
000000b0: b02a da3d 9586 6d3c 0959 c43b b007 f03c
000000c0: 28c1 c5bd abfa b9bd 4fd3 55bb 2ea9 203d
000000d0: 0a4a 3bbd 9b92 a13d 4361 a23b ea62 3c3e
000000e0: 6b3f d13b e384 1e3e b6e3 3dbe 0d69 343e
000000f0: 6a51 12bd 6183 e63d c1df 9d3d 5986 e33d
00000100: 5b39 0cbe d5b4 a73d 7e51 f3bd b8a2 1dbe
00000110: 673b 233d 786a f43d 9997 32be 717e 4dbd
00000120: 49d9 3cbd ae0f e83d 2e9b 33be 5fd8 4f3d
00000130: 04d2 963d b403 5a3d b394 eb3c 30f7 97bc
00000140: 1a47 1f3e 2803 323e 1f70 df3c 66df a4bc
00000150: 16c8 1ebe f0a6 0bbe 3954 85bd cfb2 693d
00000160: bd24 8ebd 5f16 13be 36d3 163e 72e0 b5bd
00000170: a3c9 17be 065a 283e e6e2 ddbd fd69 743d
00000180: 3091 4ebe 1005 21be bd41 3c3d 506a 953d
00000190: 0a45 293e 141d fbbc effc e7bd 05e6 713c
000001a0: 79d9 4b3d d463 f23c e10e e63d 666b bf3b
000001b0: 8816 b43d c11c 52bd ff62 3ebe bb84 22bd
000001c0: 7aad 213d 65db 1d3e 23f1 eabd 995b 9e3d
000001d0: 605f 103e 80e3 ea3d 785a a13d 168f f33d
000001e0: caa5 81bd 48a2 efbd dc83 8b3d e309 d4bd
000001f0: 8423 d7bd 1fa2 8b3d c9cb 083d 3075 a1bc
00000200: 0553 e1bd 3cfe babc 3a18 efbd 53ea 9dbd
00000210: b2fb 86b9 9bf7 68bd 3e2a d3bd 478e 9b3d
00000220: 0070 dcbd 5232 f23c 97d4 00be e799 1e3b
00000230: ab82 2fbe c372 27be 6818 aabd 6a78 fc3d
00000240: 64d6 d43d d7e5 413e 7b47 6fbd d2a6 1bbe
00000250: 746e 133e 33a3 f83d 8f36 bc3c a075 afbc
00000260: 85c1 063c 8588 10bc d6b0 6ebd cee6 adbd
00000270: a0bb e13a 1e27 2f3d 32e5 fb3d 61e8 9e3d
00000280: 5c91 abbd df60 e63d a1f5 11be 32ca 403e
00000290: 7039 8d3d 8ef0 d53b 747a 013e 2808 13be
000002a0: 61b9 c4bc eda0 35be a8ff 1a3e 698d 8e3c
000002b0: b157 09bb 4917 19bc 88d5 da3d 3c19 3fbe
000002c0: 8828 cabc f1d3 79bd 76d6 403e a001 4dbd
000002d0: 39a9 013e c027 0ebe d9c0 9a3d 33f5 c23d
000002e0: 650b 193d 382f 84bd 90bb 343b 7191 d8bc
000002f0: eb17 d8bc aacd 283e 04c1 c3bd 2b54 a1bd
00000300: a51d 9b39 cca6 0fbd cd00 533e c6b9 2e3e
00000310: a6c9 b0bd c4c0 313e 2437 203e 2170 0cbd
00000320: 6ae0 bf3d cb65 023e 3321 b43b 29d9 a0bd
00000330: 1c06 b4bd 7c6a ec3d efaf 0c3d d1d3 adbb
00000340: 2db5 a13d 8e52 2c3d d23c d7bd 0bdf 35be
00000350: c10c bdbd 1ac2 27be 61fb 24be d6dc 09be
00000360: 3952 f8bd ea8e 6c3d c950 0d3d 9235 f0bd
00000370: 44a0 b3bd 50b0 00be f250 af3c f494 95bc
00000380: 339c 0dbe 91d6 0b3e 3f31 9b3d f888 8abd
00000390: 0044 373e cbfe 6b3c 60e6 84bd f6d9 293e
000003a0: c054 bb3d 2d28 1c3e 80af 253d 7ea9 46bd
000003b0: 6bd3 80bd 9c37 b7bd e891 48bd 7f60 dbbd
000003c0: eb99 2b3d d400 80bc 4cdf debd 21e3 8fbd
000003d0: 6c65 2dbd 696a 24be b24d f93c 9773 193e
000003e0: 6a75 16bd 0df7 353d 9dd4 20bb 2069 d53d
000003f0: 6fc1 8e3d e2cc 383e 0574 48bc 989d 233c
-0.15607353 0.04398398 -0.020379107 -0.106953345 0.1710112 0.074973196 0.08540054 -0.10999347
-0.1272421 -0.12868223 -0.13516992 0.056525297 0.061649818 -0.045126442 0.12742025 0.09745955
-0.04454942 0.068918176 0.071226455 0.15407313 0.008099456 -0.14599226 -0.14970763 0.15738074
0.121372625 0.0887773 0.07839107 -0.11433546 -0.015108201 0.11662912 -0.048021317 -0.15869375
-0.20471667 0.044027086 0.04925994 0.04571557 -0.0035922886 0.039018374 0.09114121 -0.12661786
-0.10025931 0.01593016 -0.12774284 -0.028759768 0.10652673 0.014497419 0.005992059 0.02930054
-0.09655982 -0.09081014 -0.003262717 0.039223842 -0.045724906 0.07889291 0.004955442 0.18397108
0.006385734 0.1548038 -0.18543896 0.17618199 -0.035722174 0.11255527 0.07708693 0.11109609
-0.13693754 0.08188788 -0.11880778 -0.15394104 0.039851572 0.1193437 -0.17440642 -0.050169412
-0.046105657 0.11331116 -0.17539665 0.050743457 0.07364276 0.053226188 0.028757429 -0.018550485
0.15554467 0.17384017 0.027275143 -0.020126056 -0.15506014 -0.136379 -0.06510205 0.05705529
-0.06940601 -0.14364003 0.14729008 -0.088807 -0.14823012 0.16440591 -0.10834293 0.05967139
-0.20172572 -0.15724587 0.04596113 0.07295668 0.16530243 -0.030653514 -0.1132754 0.014764314
0.049767945 0.029588617 0.11233307 0.0058416603 0.0879336 -0.051296953 -0.18592452 -0.039677363
0.03947208 0.15415724 -0.114717744 0.077323146 0.14098883 0.114691734 0.07878584 0.11892526
-0.0633045 -0.117008746 0.068122596 -0.10353448 -0.10504821 0.068180315 0.03339747 -0.0197092
-0.11002163 -0.022826307 -0.11674543 -0.077107094 -0.00025746 -0.05687676 -0.103107914 0.075954966
-0.1076355 0.02956501 -0.12581097 0.002420062 -0.1713969 -0.16352372 -0.083054364 0.12327655
0.10392454 0.18935333 -0.05841778 -0.15200356 0.14397603 0.12140503 0.022975234 -0.021418393
0.00822485 -0.008821611 -0.058274113 -0.08491288 0.0017222054 0.042761914 0.12299575 0.077591665
-0.083773345 0.112489454 -0.14253856 0.18827131 0.06895721 0.0065289205 0.12644368 -0.1435858
-0.024014177 -0.1773717 0.15136588 0.017401414 -0.002095681 -0.0093439305 0.10685259 -0.1866197
-0.02467753 -0.06099314 0.1883181 -0.050050378 0.1266221 -0.13882351 0.07556314 0.09519424
0.037364382 -0.06454319 0.0027577616 -0.02643654 -0.026378592 0.16484705 -0.09558299 -0.07877382
0.0002958599 -0.03507118 0.20605774 0.17063054 -0.086322114 0.1735869 0.15646034 -0.034286622
0.093689755 0.12734143 0.0054971217 -0.0785392 -0.08790228 0.11543748 0.03434747 -0.0053047915
0.07895885 0.042070918 -0.105096474 -0.17760865 -0.09230948 -0.16382638 -0.16111518 -0.13463148
-0.12125058 0.05775348 0.03450087 -0.11728968 -0.087708026 -0.12567258 0.021400902 -0.018259503
-0.13829117 0.1365607 0.07577752 -0.06764406 0.17897034 0.014404009 -0.06489253 0.16587052
0.09147024 0.15249701 0.040450573 -0.048501484 -0.06290325 -0.089461535 -0.048967272 -0.107117645
0.041894834 -0.015625395 -0.10882434 -0.07025743 -0.04233305 -0.16056217 0.030432556 0.149855
-0.03673307 0.04442506 -0.002454079 0.10420442 0.06970488 0.18046907 -0.012234692 0.009986304

arith.constant2 f4 [128, 12]
00000000: 4186 703d 4a80 f1bc 1dac 4dbe a099 a3bd
00000010: 3a80 f83d 99d4 cdbd 406c 01be 761f b53d
00000020: ddbf d73d f759 b73d 4013 61be 34cd aebd
00000030: 346c 213d eb78 d1bd 3905 9f3d 0aa7 89bd
00000040: 8a8a 07bc cafd 943b b276 36be 884a 2f3e
00000050: 6411 3a3d 4675 37be 26c7 3cbc c6a9 b5bc
00000060: 4544 3bbe a15c dd3c 954f a73a 8e15 6cbd
00000070: 1495 563d d50d 37be 52d0 8d3d 49bd 5d3e
00000080: 312c 49bd e132 373e d3e5 80bd 871d 1ebe
00000090: 1d92 b63d 7a9d febd 6761 d73c 59d9 bdbd
000000a0: 30a2 a63b 9e06 1ebe 65f8 753d a723 293e
000000b0: 7562 a03d 62db 8e3d a4b7 8cb8 0305 413e
000000c0: 9e11 18be 8806 183e 66ec aa3d 1c39 39bd
000000d0: cf05 613e 1711 b53d c589 153d f148 44be
000000e0: 67a7 9f3d 0e9e 1cbe 53ba 40bd 2984 8fbd
000000f0: df00 b53d 9769 133e 5af3 55be 2b3e ebbc
00000100: b988 dfbc 1d0a 3fbd 4f8b 1b3d fb1c 68bb
00000110: 34e7 9e3d 9c87 723e aebd 863d bdee 403e
00000120: 5be3 533e 99b6 9c3d 5d3e 39bd 1044 edbd
00000130: 01a5 913d 8cf8 3e3e b42f 26bd 1e25 1fbe
00000140: 0482 acbd 2156 a83d c532 fdbd 30ce c43d
00000150: 27b5 ed3d 95cf 23be 78cd d23d 3ccf 48bd
00000160: d34a 2bbe c4df 43be a43a 8c3c acea 07bd
00000170: 3a7e 0b3e 3e3f 113e 7a85 afbc f965 10be
00000180: 7fe4 05be 6cd7 08be c74f 063e 2004 4c3d
00000190: cde0 65be 6bbe 46be f575 503d 1fdd 033e
000001a0: 28e9 b63d 6e5d 9e3d 61d1 b0bd 06bf 4bbd
000001b0: d8e5 16be 22d1 1a3e 1925 873d 0870 09be
000001c0: 675f 4d3d e61d b33d c5c2 43be a7f4 03be
000001d0: 5c4b 33bc d661 3b3d d179 693e 476a 06be
000001e0: 05b7 1abe 9a6c 0b3e 243e 3fbd 7b98 3f3e
000001f0: dbc2 103e 1159 4fbe ac04 cabd 4cd2 313e
00000200: c78f bdbd 7315 fd3d 1712 853d ce51 b43d
00000210: ec84 dfbd 752c e2bd f0b9 61be 2ccb 213e
00000220: e1df 573d 2708 013e 9280 893c deaf 673b
00000230: 71ce ea3b 4073 bf3c 1a03 613d fa20 b4bd
00000240: 19c4 013e 04c0 8d3c d54c ce3d d799 0bbe
00000250: fdab 98bd d997 e73d ccef 3a3e c7e2 36be
00000260: 596a ad3d 85b2 b73d 5c1b 2b3d 817d 74be
00000270: 5a57 9dbd 6c6e ccbd 8137 c7bd cb3f f6bc
00000280: 46cf 49bd e27a 07be ba74 c93d 1e64 fabd
00000290: 7408 20be 3ea1 e6bd be16 e9bd 9985 3d3e
000002a0: b473 d2bd c8da 163e 228b b8bd 02b7 823d
000002b0: 2725 6c3e 1cfd 583e ad9f 04be daf8 e93c
000002c0: 6061 81bd 6b4a d4bd 8c76 0abe 8228 de3d
000002d0: 94a2 613d 3971 2a3e 0c17 0dbe fd86 4dbd
000002e0: 7efd 243e 6305 3f3e 23c3 50be 6ed2 0e3e
000002f0: 19fe adbb ed1f 8cbd dda2 b7bd a453 71bd
00000300: e360 ddbd ca16 633e 957a d5bc cdb1 db3d
00000310: dfed 37bd 15b7 8a3d 2144 36be 5eb4 8a3d
00000320: dad3 1f3d ef13 a7bd 6b68 5b3e 6a71 903e
00000330: 0dbd d5bc b3f6 423e 05bc b63c eebe 853e
00000340: 201f 8bbe 1437 f63c 0762 c6bd 0502 a2bd
00000350: 1ed2 3f3e de68 1f3e 102a b9bc 3431 25be
00000360: 30f0 bcbd 5371 e5bd 572b 35be 9af0 3c3d
00000370: 2e11 143d c991 373e 180b 3bbd b18e 3fbe
00000380: ba40 15be 4c95 e3bd 7693 0ab9 8b72 2bbd
00000390: 47c8 d2bd 9e9d 20bd 5c1f 543c 774a 8dbd
000003a0: c962 e83d 3aab 523e 269c 163e 7bb7 88bd
000003b0: 2903 8bbd 2c13 30be 97a8 403e 0658 48bd
000003c0: 4a60 28be 0797 873d 9e4c 913d f6b7 63be
000003d0: 200a 1dbe 9d7b b3bc cda0 c6bc 1b70 373e
000003e0: 8e6f 6b3e 096f bf3d d9b3 e8bd 45d7 90ba
000003f0: a557 f2bd b710 023d 2100 c43c 2e7a 34be
0.058721785 -0.029480118 -0.20085187 -0.07988286 0.12133832 -0.100503154 -0.1263895 0.08843891
0.10534642 0.08952706 -0.2198 -0.08535233 0.03940983 -0.102281414 0.07764668 -0.06721313
-0.008272776 0.0045468556 -0.17818716 0.17118275 0.04542674 -0.1791583 -0.01152209 -0.02217568
-0.18287762 0.027021708 0.0012764806 -0.057637744 0.052388266 -0.1787637 0.069244996 0.21654238
-0.04911441 0.17890503 -0.062938355 -0.15440951 0.08914588 -0.1243238 0.026291562 -0.092699714
0.005085252 -0.15432212 0.06005134 0.16517507 0.07831279 0.06975438 -6.709926e-05 0.18849568
-0.1485047 0.14846241 0.08345871 -0.04522048 0.21974872 0.0884115 0.03650834 -0.1916845
0.07795601 -0.15294668 -0.047052693 -0.070076294 0.08838057 0.14395748 -0.20893613 -0.028716167
-0.027286874 -0.046640504 0.037974652 -0.0035417664 0.07758942 0.23684543 0.06579147 0.18841071
0.20692198 0.07652015 -0.04522549 -0.115852475 0.0711155 0.186495 -0.040572837 -0.15541503
-0.08423236 0.08219553 -0.12363199 0.0960964 0.11606818 -0.15997155 0.10293096 -0.04902576
-0.16727762 -0.19128329 0.017117806 -0.033182785 0.1362237 0.14184281 -0.021425951 -0.141014
-0.13075446 -0.13363427 0.1311637 0.04980862 -0.22449036 -0.19408576 0.050893743 0.1287732
0.0893119 0.07732664 -0.08633686 -0.04974272 -0.14736116 0.1511884 0.06598873 -0.13421643
0.05013981 0.08745937 -0.19117267 -0.12886296 -0.01094326 0.0457476 0.22800376 -0.13126479
-0.15108879 0.13615647 -0.04669012 0.1871051 0.14136831 -0.2024882 -0.09864172 0.17365378
-0.09255939 0.12357607 0.06497591 0.088046655 -0.10914025 -0.11043636 -0.22043586 0.1580016
0.052703742 0.12600766 0.01678494 0.0035352628 0.007165723 0.023370385 0.0549346 -0.08795352
0.12672462 0.017303474 0.10073248 -0.13632904 -0.07454679 0.113082595 0.18255538 -0.17859946
0.0846755 0.08969597 0.04177414 -0.23876001 -0.076826766 -0.09981999 -0.097273834 -0.030059716
-0.049269937 -0.1323047 0.09836717 -0.12226127 -0.15628225 -0.11261223 -0.11381291 0.18507995
-0.10275975 0.14731896 -0.090109125 0.06382562 0.23061047 0.21190304 -0.12951536 0.028561044
-0.06317401 -0.103657566 -0.13521785 0.1084757 0.055086687 0.16644754 -0.13778323 -0.050177563
0.16112325 0.18654399 -0.20386939 0.1394746 -0.005309832 -0.06842027 -0.089666106 -0.058917657
-0.10809495 0.22176662 -0.026059428 0.10727272 -0.044904586 0.067732014 -0.17799427 0.067726836
0.039020397 -0.08158099 0.21426551 0.28211528 -0.026091123 0.19039421 0.022306452 0.2612223
-0.27172184 0.03005556 -0.09686666 -0.079105414 0.18732497 0.15567347 -0.022603065 -0.16132051
-0.092255 -0.112032555 -0.17692314 0.046127893 0.036149196 0.17926706 -0.045664877 -0.18706776
-0.14575472 -0.111124605 -0.00013215639 -0.041857284 -0.10292106 -0.039212815 0.01294693 -0.06898969
0.11346967 0.2057313 0.14708003 -0.06675621 -0.06787712 -0.17194813 0.18814312 -0.04891207
-0.16442981 0.06620603 0.07094692 -0.22238144 -0.15335894 -0.02190953 -0.024246598 0.17913859
0.22991773 0.0934735 -0.11362428 -0.0011050483 -0.11833123 0.03175422 0.023925843 -0.17624733

arith.constant29 f4 [64]
00000000: ae04 e93c 7521 37bc e22a 043d 5310 3cbd
00000010: db73 1c3b 50d2 633c 4ad8 743c 97a9 2d3d
00000020: 0503 ebbc 08ad 2e3d 2466 8fbd 5be6 033c
00000030: b82f abbd 8247 79ba b01f dd3c 1ed5 ebbc
00000040: 9565 353c 3aaa 0fbd cdcf 11bb 1bb0 b23c
00000050: c3da 5abd c9cc 093d 33a4 f3bc 4f6a f9bb
00000060: e66c 723c 3fc0 83bd ce8c 83bb d604 d5bc
00000070: d6b7 c03c c78f dc3c af97 1e3d 6e1f 28be
00000080: 7c9a 553d 5a84 06bd f2fe 94bc 6bf2 8bbc
00000090: 9401 f33b 0705 d9ba 07be 853c 0828 e53c
000000a0: f0a9 163d 98ba cf3c be2c 18bd 360f 553d
000000b0: 8f00 b7b9 5923 03bd 3cb9 7a3a 52d1 0bbd
000000c0: 914a 04bd fcf6 493c b455 ab3d c2a0 bcbc
000000d0: 9b77 8ebc 51ed ffbc e835 a43b 13f7 cb3c
000000e0: 3fe0 023d 82d1 963b a808 113c 3f41 003d
000000f0: 045c dd3c 1ee6 863c 59c5 7ebb 79d1 93bb
0.028444614 -0.01117741 0.03226746 -0.045914005 0.0023872766 0.013905123 0.014944145 0.04239806
-0.028687963 0.042645484 -0.07001904 0.0080505265 -0.08358711 -0.00095092517 0.026992649 -0.028788146
0.011071582 -0.03507445 -0.0022249103 0.02181249 -0.053431284 0.033642564 -0.029741382 -0.00761155
0.014796471 -0.064331524 -0.004014588 -0.026003283 0.02352516 0.026924027 0.038718875 -0.1641824
0.05214928 -0.032841064 -0.018187974 -0.017083367 0.0074159596 -0.0016557284 0.016325964 0.02797319
0.03678316 0.02535753 -0.037152044 0.05201646 -0.00034904896 -0.032016132 0.0009564345 -0.03413517
-0.032297675 0.012326952 0.08365956 -0.023025874 -0.017391017 -0.031241091 0.005011309 0.024898088
0.03195214 0.004602612 0.0088521615 0.031312224 0.027021416 0.01646715 -0.0038874953 -0.004511055

arith.constant30 f4 [128]
00000000: 3c0d c6bc 3fc5 0f3c 8378 2d3c 8606 5bbd
00000010: 2e18 e2bb ee84 b8bb 1899 9bbd 68bc 533c
00000020: a94c dbbc 01c7 cd3c 1543 f7bc 3d07 c7bd
00000030: 1fac a83d ba64 cc3c 5b8e 57bd 15b8 b5bd
00000040: 3c8a 01bd 0028 f2bd 38b2 7e3c be8a 883d
00000050: e68f c63c d8cd ed3c ceec 343c 58ec 10bc
00000060: c210 003d 0925 6c3d 931e 3f39 75b1 28bd
00000070: 2a67 db3b f12d 853b 84f1 083d 58fc b9bc
00000080: 2fdc 773c b406 f1bc fcc1 83bd d73d 78bc
00000090: 5955 a83c 49ff b5ba 3212 18bd 4a28 1fbc
000000a0: fa51 643d d06a 58bd 0c2f 043c 63a8 01bc
000000b0: f0af 7a3c dd63 98bd 8c5d 20be d1f1 1fbd
000000c0: 942d ea3c 3170 97bd 43ee 6bbc c977 103d
000000d0: aaf2 683c f367 f93c 7c15 3fbd e08a 973d
000000e0: de1d 1b3d 29b3 95bd c34d ab3b dd2a 573c
000000f0: 78a8 bebc 3db2 49bd 405d 55bd fe1a d0ba
00000100: 3cbc 21bd eab3 e83c a9bb 9a39 9e5e 71bd
00000110: 0f52 10bd bba8 4f3c c151 4dbd 9e60 f93c
00000120: a03a 9ebc b263 c23d ea38 2ebd 3cca 743d
00000130: 939b a7bd 197d 2dbd b9c7 1e3c d322 bd3b
00000140: b02e 8bbc 6775 28bc 331e 79bb aa20 473c
00000150: 6973 35bd ff38 c53b 9ea7 983c 9928 443d
00000160: 2351 983c ca26 b03d ebf9 01bd 3411 ff3c
00000170: a5eb 1fbd 7b07 c5bc 8320 89bc c00a 0bbd
00000180: 3822 17bd a205 903c 249a 133b 93a7 823d
00000190: 8bac a5bb ceaf 6f3d 079a cdbc 3910 603c
000001a0: 9ca0 2cbc 3dba 47bd 1f83 743c 843d 82bd
000001b0: db54 39bd f5bd 243d df7c f8bd 6843 9b3d
000001c0: be0f d13c efea 78bd 2ae1 8c3d ec2a 043c
000001d0: aa9a b3bd b0b9 4b3b 6da0 0d3d e596 0cbe
000001e0: b26b 073d 416b bdbd 7bc3 a73c 062f 60bc
000001f0: 176d 1fbd b2de 28be 8423 e8bc c14a 733d
-0.024176233 0.0087750545 0.010587814 -0.053473018 -0.006899855 -0.005631081 -0.0759756 0.0129233375
-0.026769953 0.025119307 -0.030183354 -0.097181775 0.082359545 0.024950374 -0.052625995 -0.088730015
-0.03162597 -0.11824036 0.01554542 0.06667088 0.024238538 0.029028818 0.011042787 -0.008845411
0.03126598 0.057652507 0.00018226569 -0.04118486 0.0066956477 0.0040643145 0.033433452 -0.022703335
0.015128179 -0.029422142 -0.06433484 -0.0151514625 0.02054851 -0.0013885285 -0.037126727 -0.0097141955
0.05574224 -0.05283624 0.0080678575 -0.007913682 0.015300736 -0.074409224 -0.15660685 -0.039048973
0.028586186 -0.07394446 -0.014400068 0.035270486 0.014218012 0.030445075 -0.04665135 0.07399535
0.03787028 -0.07309563 0.005227776 0.013132778 -0.023273692 -0.049242247 -0.052090883 -0.0015877185
-0.039486155 0.028406102 0.00029512987 -0.058928125 -0.035234507 0.012674506 -0.050126795 0.030441578
-0.019315064 0.094916716 -0.042534746 0.05976318 -0.0818397 -0.04235563 0.009691172 0.0057719736
-0.016990036 -0.010281897 -0.0038012385 0.012153784 -0.044299517 0.0060187574 0.018634614 0.04789028
0.018593377 0.086011484 -0.03173248 0.031136133 -0.039043088 -0.024051419 -0.016739136 -0.0339458
-0.036897868 0.017580811 0.0022522295 0.063796185 -0.005055969 0.05851727 -0.02509786 0.013675743
-0.010536339 -0.048761595 0.01492384 -0.063593894 -0.04524694 0.04022022 -0.12133192 0.07581216
0.025520202 -0.060770925 0.06878884 0.008066874 -0.08769734 0.003108602 0.034576822 -0.13729437
0.03306169 -0.09248973 0.020478955 -0.013683086 -0.038922396 -0.16491202 -0.028337248 0.059397463
